…
2020-11-06 20:40:50.532731: I tensorflow/compiler/xla/service/service.cc:168] XLA service 0x56131b5f0cc0 initialized for platform CUDA (this does not guarantee that XLA will be used). Devices:
2020-11-06 20:40:50.532754: I tensorflow/compiler/xla/service/service.cc:176]   StreamExecutor device (0): GeForce RTX 2080 Ti, Compute Capability 7.5
1 Physical GPUs, 1 Logical GPU
Model: "sequential"
_________________________________________________________________
Layer (type)                 Output Shape              Param #   
=================================================================
conv2d (Conv2D)              (None, 48, 48, 32)        320       
_________________________________________________________________
batch_normalization (BatchNo (None, 48, 48, 32)        128       
_________________________________________________________________
activation (Activation)      (None, 48, 48, 32)        0         
_________________________________________________________________
max_pooling2d (MaxPooling2D) (None, 24, 24, 32)        0         
_________________________________________________________________
dropout (Dropout)            (None, 24, 24, 32)        0         
_________________________________________________________________
conv2d_1 (Conv2D)            (None, 24, 24, 64)        51264     
_________________________________________________________________
batch_normalization_1 (Batch (None, 24, 24, 64)        256       
_________________________________________________________________
activation_1 (Activation)    (None, 24, 24, 64)        0         
_________________________________________________________________
max_pooling2d_1 (MaxPooling2 (None, 12, 12, 64)        0         
_________________________________________________________________
dropout_1 (Dropout)          (None, 12, 12, 64)        0         
_________________________________________________________________
conv2d_2 (Conv2D)            (None, 12, 12, 64)        36928     
_________________________________________________________________
batch_normalization_2 (Batch (None, 12, 12, 64)        256       
_________________________________________________________________
activation_2 (Activation)    (None, 12, 12, 64)        0         
_________________________________________________________________
max_pooling2d_2 (MaxPooling2 (None, 6, 6, 64)          0         
_________________________________________________________________
dropout_2 (Dropout)          (None, 6, 6, 64)          0         
_________________________________________________________________
conv2d_3 (Conv2D)            (None, 6, 6, 32)          18464     
_________________________________________________________________
batch_normalization_3 (Batch (None, 6, 6, 32)          128       
_________________________________________________________________
activation_3 (Activation)    (None, 6, 6, 32)          0         
_________________________________________________________________
max_pooling2d_3 (MaxPooling2 (None, 3, 3, 32)          0         
_________________________________________________________________
dropout_3 (Dropout)          (None, 3, 3, 32)          0         
_________________________________________________________________
flatten (Flatten)            (None, 288)               0         
_________________________________________________________________
dense (Dense)                (None, 256)               73984     
_________________________________________________________________
batch_normalization_4 (Batch (None, 256)               1024      
_________________________________________________________________
activation_4 (Activation)    (None, 256)               0         
_________________________________________________________________
dropout_4 (Dropout)          (None, 256)               0         
_________________________________________________________________
dense_1 (Dense)              (None, 512)               131584    
_________________________________________________________________
batch_normalization_5 (Batch (None, 512)               2048      
_________________________________________________________________
activation_5 (Activation)    (None, 512)               0         
_________________________________________________________________
dropout_5 (Dropout)          (None, 512)               0         
_________________________________________________________________
dense_2 (Dense)              (None, 7)                 3591      
=================================================================
Total params: 319,975
Trainable params: 318,055
Non-trainable params: 1,920
_________________________________________________________________
Train on 25838 samples, validate on 2871 samples
Epoch 1/1000
2020-11-06 20:40:52.992908: I tensorflow/stream_executor/platform/default/dso_loader.cc:44] Successfully opened dynamic library libcublas.so.10
…
